models/classifictaion_head.pth (torch, 39344 bytes, 4 tensors)

weight f4 [64, 128]
000000 36 59 71 bd 4d 06 82 bc e9 58 79 3c 06 45 d0 3d
       -0.05892297 -0.015872145 0.015218952 0.10169415
000010 79 0c f7 3c d3 76 81 3d 25 73 01 3e ae 3a aa bd
       0.030157315 0.06321492 0.1264158 -0.083119735
000020 81 0d 22 3e 2f f1 8a 3d 98 29 2d 3e f4 f6 1a be
       0.15825464 0.06784283 0.16910398 -0.15133268
000030 80 07 9e bd dc 6b 14 3e 7f a3 0b 3d fa 9a 04 3e
       -0.07716274 0.1449427 0.03409147 0.12949744
000040 a7 19 28 3e eb 1e b0 3d ec 27 e1 3d 7f 85 25 3e
       0.16416036 0.08599647 0.109939426 0.16164206
000050 84 b7 db bb 7b ca 0e 3e 28 d1 1a 3e d4 99 1d 3d
       -0.0067052264 0.13944428 0.1511885 0.03847678
000060 30 07 11 3e 85 81 d1 3c e7 88 e6 bd 62 b3 f9 bd
       0.14162898 0.025574455 -0.11256581 -0.12192418
000070 81 dd 0a 3d 66 58 ee bd a6 8f f8 bd 0a 09 bf 3d
       0.03390265 -0.116379544 -0.12136774 0.09327896
000080 ea db 24 be 8f 75 c5 bc 7a 4e b9 3d 2f 00 3f 3e
       -0.16099516 -0.024103908 0.09048171 0.18652414
000090 1f b9 7e bc b3 54 40 3c a9 ae a1 bd fb b7 1f be
       -0.015547066 0.011738944 -0.07894642 -0.15597527
0000a0 d1 c6 94 bd d9 36 5a bc c0 4a 07 be e8 bb 3f bc
       -0.07264484 -0.013318741 -0.13212109 -0.011702515
0000b0 a6 71 31 be ed 96 b2 3d df 89 08 be 01 14 a3 bc
       -0.1732851 0.08720193 -0.13333844 -0.019907
0000c0 10 15 9f 3d bc c7 27 3e 9d 96 76 bd ae 2f d0 bd
       0.07767689 0.16384786 -0.06020223 -0.10165344
0000d0 93 00 ec bd c0 16 37 3c 72 fb 0a 3e 93 8c 87 3c
       -0.11523547 0.011174858 0.13572481 0.016546523
0000e0 2a d1 1d 3c 75 f4 28 be 8f 65 a4 3d f7 6f 9e bd
       0.009632388 -0.16499503 0.08027183 -0.07736199
0000f0 59 3b dc 3d fb d4 d7 3d 8a d1 13 be f8 b9 ee 3b
       0.10753507 0.1053867 -0.14435402 0.007285353
000100 ec 13 d0 3d 77 99 af bd 17 c0 b2 3d e5 26 21 be
       0.1016005 -0.08574193 0.087280445 -0.15737493
000110 15 f7 34 3e 1f e1 d7 3d 3a f9 b8 bd 9f f8 7e 3d
       0.1767238 0.10540985 -0.09031911 0.062248822
000120 7c 95 03 bd 92 ad 89 bd 2f f7 63 3e a5 29 fa 3c
       -0.03212498 -0.06722559 0.22262262 0.030537436
000130 e3 a1 18 3e 75 97 0f be ac 1b e7 bd ad 30 1a be
       0.14905505 -0.1402262 -0.11284575 -0.15057631
000140 d5 db 22 3d f4 bd f6 bb 27 4e 2b be 22 56 0f 3d
       0.03976043 -0.0075299684 -0.16729032 0.034994252
000150 5a db 0e 3e d8 b9 17 3e 3e 14 a4 3d 22 25 4a bd
       0.13950863 0.14816988 0.080116734 -0.04935182
000160 e1 07 4c 3d 02 9a 91 bc cb ab af bd 90 82 ce 3d
       0.0498122 -0.017773632 -0.08577689 0.100834966
000170 a4 b7 26 3d 5d 68 f6 3d 38 6e 57 3d 32 9c 0d be
       0.040702477 0.120316245 0.052595347 -0.13829115
000180 45 7f ae bd 01 9c 8d 3d df 70 8c bd 70 f9 e2 ba
       -0.085203685 0.06914521 -0.06857466 -0.001731677
000190 55 7d 02 be a5 65 0e be dd 84 ae 3c e3 af 05 3d
       -0.12743123 -0.13905962 0.021303589 0.03263844
0001a0 8c f7 ff 3c 87 1c fe bd 06 89 8e bd 5a e2 a0 3d
       0.03124597 -0.12407785 -0.06959729 0.07855673
0001b0 be 4e 53 bc c1 d0 27 be 8f 92 2f 3e fe 1a 31 be
       -0.012897192 -0.16388227 0.17145751 -0.17295453
0001c0 40 2f 8e bc c2 98 1e 3e 91 31 03 be d1 c7 2d 3e
       -0.017356515 0.1548796 -0.12811877 0.16970755
0001d0 e6 a9 19 be fd e3 13 3e b4 4f 24 bd 25 be ea 3d
       -0.15006217 0.1444244 -0.040115073 0.114620484
0001e0 0e a6 ae bd 52 6d 5e 3d ba 82 85 bd a0 6c ff bd
       -0.08527766 0.054303475 -0.06519075 -0.124718904
0001f0 fb 63 86 3d 52 d1 33 3e 04 ea f5 3d 21 f0 4f 3e
       0.065620385 0.17560318 0.120075256 0.20306446
000200 69 a5 02 3e 76 ec fa 3d a3 60 94 3d 99 76 bf bd
       0.12758411 0.122521326 0.072449945 -0.093487926
000210 e8 79 27 3e c9 99 d3 3d ea e6 9b 3d 30 b6 b4 3d
       0.16355097 0.103320666 0.07612403 0.08823812
000220 3f 63 e2 3c 9e 4d 0a be 03 5e 26 3e cd 33 58 bd
       0.027635215 -0.13506171 0.162468 -0.052783776
000230 12 95 da 3c 92 ea e7 3d 69 6e 84 3d 24 9a 06 3e
       0.02668241 0.113240376 0.064663716 0.13144737
000240 9c a5 15 be 36 4b 8c bd a1 01 51 bd a9 3c 9f bd
       -0.14613956 -0.06850283 -0.051026944 -0.07775242
000250 59 d7 d1 3d b4 b7 11 3d 3b b2 94 3d 6e 01 1b be
       0.102461524 0.035575584 0.07260557 -0.15137264
000260 ba 0b df bd a6 5c 1b 3e 8a b3 92 39 0c d8 13 be
       -0.108909085 0.15172061 0.00027981057 -0.14437884
000270 5b af 63 3d 0e c1 19 3d 1a 57 cf bd 01 8f 30 bd
       0.055587154 0.037537627 -0.10124035 -0.04310513
000280 75 ee d3 3d 17 31 a5 3d 41 12 90 bd 60 ee 8e bd
       0.103482164 0.08066004 -0.07034732 -0.0697906
000290 ba 88 0d 3d bb 97 d8 bd 4a 0b f1 bd d7 a9 48 bd
       0.03455422 -0.10575815 -0.11769731 -0.048990097
0002a0 1e a5 e9 bd 82 07 3a 3c c8 58 7e 3d 5c d0 66 3d
       -0.11408447 0.011354329 0.062096387 0.05635105
0002b0 85 24 16 3e b4 38 93 3c 26 9e c4 3d fb e4 74 bd
       0.14662369 0.017971374 0.09600477 -0.059788685
0002c0 9d 32 0d 3e 76 aa 0d 3e ed d1 45 bd 0c 1e e9 bd
       0.13788839 0.13834557 -0.048295904 -0.11382684
0002d0 dd 76 a5 3c b8 cb 90 bd e3 2a d4 3d 06 16 4b 3e
       0.02019828 -0.07070106 0.103597425 0.1983262
0002e0 44 cc 05 be 76 0b 2f bc c8 65 02 3e 79 a5 df 3c
       -0.13066202 -0.010683885 0.12734139 0.027300583
0002f0 70 7d e3 bd a7 29 93 bc 19 86 da bd 0a 88 d0 bc
       -0.1110791 -0.017964197 -0.10670108 -0.025455493
000300 54 d3 2e 3e a7 d0 bf bb 2c 9c 09 be 52 bf a2 bd
       0.17072803 -0.0058537307 -0.13438481 -0.07946648
000310 9a 87 03 be 8f 71 53 3c 4a 48 0e be 3c 20 3b 3e
       -0.12844697 0.012905492 -0.13894764 0.18274015
000320 a3 d7 a6 3d ab 98 63 3d 1a 1d 28 3e 8a 23 16 3e
       0.08146598 0.055565517 0.16417351 0.14661995
000330 ba 2a fc bd 1f 74 33 be bb 0e 02 3e 2a c4 d2 bd
       -0.12312837 -0.17524765 0.12700932 -0.102913216
000340 ac fe 8d 3d e3 b6 94 3c 7e 1e aa 3c 37 d6 0a be
       0.069333404 0.018153613 0.020766493 -0.13558279
000350 cd 21 11 bd 95 7d 97 3d b0 e3 08 be 7d 9b c5 3c
       -0.035432626 0.07397 -0.13368106 0.024121994
000360 a8 8f d1 bd 71 73 12 3e 7f 1d d3 bc 69 3b 5c bd
       -0.102324784 0.1430185 -0.0257709 -0.053767595
000370 53 34 c7 3d e4 3d da bb c1 ed 7a bd 88 a3 20 3c
       0.09726777 -0.00666021 -0.061261896 0.009804614
000380 94 f7 07 3e c0 cf c7 bc 62 9d 72 3e 47 1a 37 be
       0.13278037 -0.024391055 0.2369285 -0.17881118
000390 9d b9 f1 bd 4f ee 87 bc dd 14 d8 3d c2 7b ee 3d
       -0.11802981 -0.016593127 0.10550854 0.11644699
0003a0 4b 77 0a be c5 b1 0f bd 3a a9 a5 bc 74 62 a5 3a
       -0.13522069 -0.035081644 -0.020222295 0.0012617842
0003b0 b6 f5 6d 3e 40 c0 ef bd ed 58 1d 3e 35 2e 39 3d
       0.23238263 -0.11706591 0.15365954 0.045210082
0003c0 c4 f7 d4 3d 24 b2 00 3e ba bd dc 3d 30 3f 91 3d
       0.1039882 0.12567955 0.10778375 0.0709213
0003d0 f1 f8 8c bc bc 1c ff bd 42 bd 2d 3e a5 1f b3 3d
       -0.017208548 -0.124566525 0.16966727 0.0874627
0003e0 d1 b9 c3 3d 88 06 29 3e 30 43 58 3e d8 b1 28 be
       0.09556926 0.16506398 0.2111938 -0.16474092
0003f0 5c 1a 89 3d 7e b4 5e bd b2 b4 64 bc c0 45 90 bd
       0.06694481 -0.05437135 -0.013959097 -0.07044554

bias f4 [64]
000000 f4 37 80 3d 6a 21 86 3d 26 b6 4c bc 44 07 5f bb
       0.06260672 0.06549342 -0.012494599 -0.003403143
000010 41 4b b1 bb 00 00 00 00 58 f3 59 3c 43 00 42 bb
       -0.0054105823 0.0 0.013302647 -0.0029602207
000020 4f d5 c5 3c 0c ac 9f bc 99 07 53 bc 54 9e dc 3c
       0.024149565 -0.019491218 -0.012880229 0.026930965
000030 00 00 00 00 00 00 00 00 ad a8 af ba 00 00 00 00
       0.0 0.0 -0.001340171 0.0
000040 0d 76 a4 bb 82 0d 7d bc 00 00 00 00 cd 62 e6 bc
       -0.0050189556 -0.015445115 0.0 -0.028123284
000050 f1 82 f1 bb 33 0e 8b 3c cb 76 89 3b 00 00 00 00
       -0.0073703458 0.016974544 0.0041950694 0.0
000060 89 6e ca 3c a2 41 07 ba 6b c3 f6 3a 54 36 2c bc
       0.02471091 -0.00051596214 0.001882655 -0.010511
000070 c5 56 9e 3b 9f e5 4c bc eb 07 8a 3c 86 0c a9 3c
       0.004832121 -0.012505918 0.016849479 0.020635854
000080 35 c8 28 bc 7b f7 ab 3c 00 00 00 00 26 29 16 3c
       -0.010301639 0.020992031 0.0 0.009165084
000090 6e 22 d2 3c 61 a0 25 3b 2c dc b2 bb 00 00 00 00
       0.025651183 0.0025272595 -0.0054583754 0.0
0000a0 89 be c5 3b b7 5e c8 3c 61 4b 18 bb 00 00 00 00
       0.0060346765 0.024459226 -0.0023238289 0.0
0000b0 00 00 00 00 24 c8 31 bc de 48 7e 3d f8 66 a7 bc
       0.0 -0.01085094 0.06208121 -0.020434842
0000c0 8c 1d f8 3b 00 00 00 00 00 00 00 00 00 00 00 00
       0.0075718816 0.0 0.0 0.0
0000d0 10 98 ae 3c c8 aa 8a 3d 00 00 00 00 94 f8 ed 3c
       0.021312743 0.06770855 0.0 0.029049195
0000e0 f5 94 88 3c 20 6e 1d ba 00 00 00 00 37 1b 58 3c
       0.01667259 -0.00060054846 0.0 0.013190082
0000f0 00 00 00 00 00 00 00 00 a9 c3 46 3d b0 4a c5 3c
       0.0 0.0 0.04852644 0.024083465

weight f4 [11, 64]
000000 ac 40 81 3e a3 ff b6 3e 4b ca f2 bd 66 fe e6 3d
       0.25244653 0.3574191 -0.118549906 0.112789914
000010 54 21 84 be 59 f0 58 3e ac 12 07 be 2b fc 80 bd
       -0.25806677 0.21185435 -0.13190717 -0.06298097
000020 c0 2d 56 3e 3b a9 e1 3d 05 0c 53 bd 68 ab e3 3d
       0.2091589 0.11018606 -0.051525135 0.111166775
000030 6e eb 4f 3e 91 9f 38 3e 4e 85 88 be f1 ef 62 3e
       0.20304653 0.1802962 -0.26664203 0.22161843
000040 fa f1 4a 3c b3 10 89 be 86 75 86 3e db 82 20 be
       0.012386793 -0.26770553 0.26261538 -0.15674917
000050 0c 04 f4 bd d3 15 f0 3d c1 ff 2b 3e e3 cd 48 bc
       -0.119148344 0.11722913 0.16796781 -0.0122561185
000060 b9 5d f4 bd 95 b2 b4 3d ef f4 82 be d9 5e 87 3e
       -0.11931939 0.08823124 -0.25577495 0.2643955
000070 9f b2 62 bd a2 4d 87 be 51 2c d1 3d 22 7c 8d be
       -0.055346128 -0.26426417 0.10213531 -0.27633768
000080 f2 bf 9e bd f2 53 24 3e a2 d6 2a be 19 7c ad 3c
       -0.077514544 0.16047648 -0.16683438 0.021177338
000090 66 46 a0 3d db 3d 88 bd 4e 6c 88 be 50 40 cb 3d
       0.078259274 -0.06652423 -0.2664513 0.09924376
0000a0 75 19 b6 bd 95 bc 20 be 60 f1 07 be 14 dd 8a 3e
       -0.08891574 -0.15696938 -0.13275671 0.27121794
0000b0 12 88 c5 bd f1 8b f0 bc 22 f5 79 3e 4f e3 57 bd
       -0.09645094 -0.029363604 0.24409917 -0.052707013
0000c0 7d 94 c1 bc 8f f6 8b be 64 7f c5 bd 58 51 e2 3d
       -0.023630375 -0.27336547 -0.096434385 0.11050671
0000d0 3e 97 87 bc d4 da 91 3e b7 67 98 bc 47 6c 56 3e
       -0.01655161 0.28487265 -0.018604143 0.20939742
0000e0 8f dd 3f be 50 17 63 3e da 4a 08 be d4 47 81 be
       -0.18736862 0.22176862 -0.13309804 -0.25250113
0000f0 19 bd 0b 3d 47 d2 56 3e 73 9c 79 3e 86 13 11 3e
       0.034115884 0.20978652 0.24376087 0.14167604
000100 d9 56 9c be 32 b7 ca 3c b6 45 95 bd 52 dd 05 be
       -0.3053501 0.024745557 -0.07288687 -0.13072708
000110 b5 d9 10 3e 74 3e 18 3c 65 2a 20 3e 6c d5 5e 3e
       0.14145549 0.009292234 0.15641172 0.21761101
000120 73 dd eb 3b 9e 51 4e be 0e 9b dd 3c 7f bc 53 be
       0.0071980297 -0.20148322 0.027051475 -0.20677374
000130 d1 2f b9 3d 4e e5 66 bd 62 00 cd bc 4c 58 84 bd
       0.090423234 -0.056371026 -0.025024597 -0.06462154
000140 cb e5 c7 3d b1 0a 11 be d5 a3 3e 3e 3c 3d 6e be
       0.097606264 -0.14164235 0.18617184 -0.23265547
000150 60 fe a5 3d eb 43 7f 3d ac d4 0d be cf bc bf 3b
       0.08105159 0.06232063 -0.13850659 0.005851365
000160 3d bb 18 3e 13 e5 f9 bd 7b 8c 93 bd 4e 6b e8 3c
       0.14915176 -0.122018956 -0.07204529 0.02837148
000170 76 f7 9c 3d 10 de 2d be 53 d3 9b 3e c4 9b 93 3e
       0.07664387 -0.16979241 0.30434665 0.28829777
000180 c6 26 63 be 2b 2c 66 bd aa 42 4b bd a9 55 4b bd
       -0.2218276 -0.056194466 -0.049624123 -0.04964224
000190 51 08 b7 3d a9 36 2a 3e 8b ba 6b 3d a3 57 2d 3e
       0.08937133 0.16622414 0.057550948 0.16927962
0001a0 91 1a 39 3e f6 c9 df 3d d4 de 2c be 49 b7 33 bd
       0.1807654 0.10927193 -0.16881877 -0.043875966
0001b0 7c 45 4c be 50 ae 22 be b5 ee 90 be da fe 1a 3e
       -0.19948381 -0.15886807 -0.2830712 0.1513628
0001c0 c5 a4 d4 3d 83 d4 a2 3d b3 41 6e 3e ea a8 21 be
       0.1038299 0.0795069 0.2326725 -0.15787092
0001d0 ca 91 4b 3e b5 de f0 3d 66 1a bc bd 5b 05 90 3e
       0.19879833 0.11761228 -0.091847226 0.28129086
0001e0 16 ba 9b 3e 66 ab 8a be a8 cf 39 be a0 4f 1a 3e
       0.3041541 -0.27083892 -0.18145621 0.15069437
0001f0 c2 2b a6 3c 9e a9 2c 3e 5c 47 43 3d 0c f8 dc 3d
       0.020284537 0.16861579 0.047675475 0.10789499
000200 1d b6 a3 3d 93 cd 77 be 0c 51 26 be aa 72 19 3e
       0.0799372 -0.24199514 -0.16241854 0.14985147
000210 23 89 93 3e 4a ed 3f be d7 c2 43 be b4 3c 83 3e
       0.28815565 -0.18742862 -0.19117294 0.2563225
000220 4b 6a ff 3d 78 29 76 be 8b 69 2b be 15 9f 5c 3e
       0.12471446 -0.24039257 -0.1673948 0.2154506
000230 25 7a 6d bd 49 71 d2 bd cb 70 28 3e 5f e6 34 3e
       -0.057977814 -0.10275514 0.16449277 0.17666005
000240 42 3b 1a 3e 30 f8 8a be 4c 8e 4e 3e 29 f4 51 be
       0.15061668 -0.27142477 0.2017147 -0.20503296
000250 e7 92 e9 bd 57 fb 8c 3d 24 78 91 3e fc 8f 04 3e
       -0.114049725 0.06883877 0.28411973 0.1294555
000260 50 14 66 3e 4c 97 5c 3e 3c cb 16 3e b0 fb ae 3c
       0.22468686 0.2154209 0.14725965 0.021360248
000270 db 8b 2e bc 4c 29 07 3e 09 ca 2b 3d da 88 75 3d
       -0.010653461 0.13199347 0.041940723 0.059944965
000280 ef 89 14 be 81 b5 17 be 5e 68 8e 3e 03 c6 91 bd
       -0.14505742 -0.14815332 0.27814 -0.07117846
000290 14 d9 9b 3e 0d 23 60 be 43 af 9c bc 00 fd 45 3e
       0.30439055 -0.21888371 -0.01912654 0.19334793
0002a0 fe f2 35 3d b1 90 76 3e d2 9e c9 bd e3 6d b7 3d
       0.04442119 0.24078633 -0.09844746 0.08956506
0002b0 8f 78 88 be 27 d3 00 3d b1 24 95 be 23 94 cf bd
       -0.2665448 0.03145137 -0.29129556 -0.10135677
0002c0 14 4d 11 be ab 6a d6 3d b3 6e 1e be cb 4f 45 be
       -0.14189559 0.10469564 -0.15471916 -0.1926872
0002d0 5e 27 50 3e 4f f8 db 3d 88 fb f4 3d c4 33 4e be
       0.20327517 0.107407205 0.11962038 -0.20136935
0002e0 0d 34 14 3e dc e7 39 3e 56 df 0f 3e a1 06 a6 3c
       0.14472981 0.18154854 0.1405004 0.020266833
0002f0 57 5d 0c 3e 9d fe c0 3d e5 a1 7b be 0d bc 0b 3d
       0.13707481 0.09423564 -0.24573477 0.034114886
000300 c1 30 9e 3d eb 47 b1 bd c3 be 81 3e 9c 99 89 3d
       0.07724143 -0.086562954 0.25340852 0.06718752
000310 a3 0f 86 3d 77 bf 35 be ef c6 91 3d ad ac c2 bc
       0.06545951 -0.1774882 0.07118022 -0.023763979
000320 38 89 93 3d 21 d2 a7 bd 65 bf 2b 3e c2 27 16 be
       0.07203907 -0.08194376 0.1677223 -0.14663604
000330 43 68 1a be 66 3d 7f be e6 68 7e bc 06 9f 76 3a
       -0.15078835 -0.24925765 -0.015527939 0.00094078516
000340 99 b3 1d be 39 56 02 be c3 54 31 3e fc f1 83 3e
       -0.15400542 -0.12728204 0.1731749 0.25770557
000350 a5 56 8c 3e e9 ed 73 3e 72 ab 42 be 6c 49 45 3d
       0.27409855 0.23821224 -0.19010714 0.048165724
000360 f4 df 84 3d c5 63 a5 bd f9 69 e3 bd 0c 15 2c be
       0.06488028 -0.0807567 -0.11104197 -0.16804904
000370 e5 02 22 be 19 fb 82 be 49 39 ac bd be 3a 0e 3e
       -0.15821417 -0.25582197 -0.08409364 0.13889596
000380 d3 5f 0c 3e 0e 8c 95 3c 4a aa 4d 3e ea c9 2b be
       0.13708429 0.01825526 0.20084491 -0.16776243
000390 72 25 2a 3e 7c 71 91 3e 61 8a 61 3e 6b 3b 55 be
       0.16615847 0.28406894 0.22025444 -0.20823447
0003a0 59 ad 18 3e a0 d2 f5 3d 2f 75 89 3e c5 22 44 3d
       0.14909877 0.12003064 0.26847216 0.04788472
0003b0 2f 50 8f 3d e1 db e8 3d 2b 96 42 3d cc 71 1f 3e
       0.06997716 0.113700636 0.047506493 0.15570754
0003c0 97 2f 6a 3e c6 d1 16 3e ee 02 88 3c 5b 87 27 3e
       0.22869717 0.1472846 0.01660296 0.16360228
0003d0 44 c2 62 bd fa 28 82 bb 9e 9f 68 be c2 29 8f be
       -0.055361047 -0.00397217 -0.22717139 -0.27961546
0003e0 22 e8 3f bd 0f 96 84 3e 2e e6 83 be 6e a0 2e be
       -0.04685224 0.25895736 -0.2576155 -0.17053387
0003f0 b6 88 78 3e d2 c5 63 3e b3 8e 78 3e 0a dc 49 be
       0.24270901 0.22243431 0.24273185 -0.19712844

bias f4 [11]
000000 b6 90 90 3d fc 90 4e 3c 1e 71 35 3c 30 10 10 bc
       0.070588514 0.012607809 0.0110743325 -0.008792922
000010 c6 5c e9 bb 1c d7 b4 bc b5 59 01 bd 62 85 97 bc
       -0.007121655 -0.022075228 -0.031579692 -0.01849622
000020 b9 17 28 bd 6c 25 13 bd f3 ed 75 bd
       -0.04103825 -0.03592436 -0.06004138
