models/encoder.pth (torch, 259160 bytes, 2 tensors)

weight f4 [128, 500]
0.14689821 -0.0004334465 -0.0028113746 0.0035865703 -0.0040480522 -0.0015955904 0.00093035254 -0.0027023451
-0.0019837487 0.0024244492 -0.000489159 -0.0045166244 -0.0013467426 -0.0015509855 0.0016300657 -0.00052896
0.0014417925 -0.0016972793 -0.00037900874 0.00015876487 -0.00013014676 -0.0006715077 -0.0012410261 0.0012080988
0.0012203326 -0.00022303381 0.0013148375 -0.0011583403 -0.00023107011 -0.0004089637 -0.0019527833 0.0012769877
0.0010563977 0.0009708865 -8.800546e-05 0.003079589 0.00052468723 0.0007310012 0.0011655077 -0.0017138133
-0.00024599233 -0.001818391 -0.0006699667 0.00047520755 0.0015725044 0.002521285 0.0014762636 -0.00035568074
0.00049277913 -0.00019712248 0.0011149256 5.559271e-05 -0.00052073336 0.002599346 -0.0010844603 0.001346388
0.00032601456 0.00057082134 -0.0012895673 0.0010340346 0.00116783 -0.0021130096 0.0013130954 -0.00010859495
0.000488689 0.0018202252 0.00060555316 0.00041009783 0.0021495207 0.000378866 2.9038383e-06 0.001740446
-0.00039007375 0.001982959 -0.0019825327 0.0012883686 0.0012112426 -0.0035742712 -0.00096974045 -0.00011265309
0.0007354163 -0.0022186069 -0.0011018368 -0.0006921991 -0.00064436236 -0.0013207444 0.00049837737 0.00044609074
0.00035784932 -0.00042053332 -0.00066204515 -0.0010791412 0.0010145701 -0.0006852618 -0.0010966248 -0.0022138187
0.00024529986 0.0005851482 -0.00078183017 -0.0014082007 -0.00015459588 -2.849263e-05 0.0029813375 0.00029712706
0.00029584905 -0.00013456028 -0.0019833231 0.00023685211 0.00091587583 0.0026680552 -0.0009866586 0.0012042335
0.0008229933 -0.00023595698 0.00048032645 0.00035582346 0.0009867365 -0.0005037734 -0.0021761272 -0.0008567581
0.00092315185 -0.0011102174 0.0002701949 -0.0003218019 0.0005478509 -0.00071579806 0.0014401171 0.00063037383
-0.00040787828 0.0012690984 0.00083239336 -0.0008712487 -0.0019140114 -0.0004717018 -0.00011863621 -0.00066523673
-0.0020812266 0.0012369759 0.000974288 -0.0012805089 0.00052316906 -0.0021034398 0.0008574606 0.0006450598
-0.001238246 -0.0013503974 0.0005474825 -0.000863813 0.00029411324 0.0017507453 -0.00088300946 0.00089497585
0.00016033938 0.0015909055 -0.0014807697 -0.00061848824 0.0005135498 -0.0011772497 0.000374368 0.0011598296
-0.00042922882 0.0003716037 0.0006772712 -0.00029443362 -0.00114271 -0.00042973473 0.0007368393 0.00092698337
-0.0005964295 -0.0019408673 -0.0019813306 -0.00029718355 0.00017023222 -0.002323416 0.001971319 0.0013497153
0.0024603503 0.0012115249 0.0010449317 -0.0004086896 -0.0005565208 -0.00019419676 -9.6177726e-05 -0.00070502365
-0.0016217028 0.0013473652 -0.00025196013 -0.0012396695 -0.0008783281 8.257232e-05 0.0011473426 -0.0013258237
0.001239383 -0.0006637106 -0.00023774643 -0.0010839846 -0.0011762667 0.00090889697 -0.0002633609 -0.00065552955
0.0013762381 0.0017529948 -0.00014056453 0.0006724312 0.00081578566 0.00039706577 -0.00025441434 -0.00049976335
-0.0015019419 -0.0009723176 -0.00011559276 0.0022005378 -0.0017303571 -0.0020725091 -0.0016345937 0.0008916511
-0.0011540672 0.0018150884 -0.00013042882 -0.0007708159 -0.0013929855 0.0003637696 0.00022784641 0.0006552691
0.00041587322 0.0013200676 0.00016849399 0.0015269022 -0.0005833978 0.00024865806 -0.0005018625 -0.0017761742
-0.0004291398 -0.0007577892 0.00018711045 -0.0022369612 -0.0016016536 0.0003250192 -2.6332555e-05 0.0010716082
-0.0012261295 1.523422e-05 0.000729434 -0.0002844201 0.0008906386 -0.0006506493 -0.0006289937 0.00026300724
-0.0009540355 0.00038212212 0.00053734897 -0.0005376712 0.0020540075 4.190586e-05 -0.0007892122 0.0005943977
00000000: 7c6c 163e 3440 e3b9 0a3f 38bb aa0c 6b3b
00000010: 86a5 84bb 2123 d1ba e7e2 733a d419 31bb
00000020: c801 02bb 82e3 1e3b e83a 00ba 3100 94bb
00000030: 2f85 b0ba 704a cbba eea7 d53a e8a9 0aba
00000040: 87fa bc3a 3e77 deba b1b5 c6b9 1f7a 2639
00000050: 0178 08b9 1e08 30ba eda9 a2ba 1259 9e3a
00000060: 91f3 9f3a 2fde 69b9 a056 ac3a 73d3 97ba
00000070: 694b 72b9 2e6a d6b9 89f4 ffba 9960 a73a
00000080: d376 8a3a 1783 7e3a 928f b8b8 eed2 493b
00000090: 2a8b 093a a9a0 3f3a f3c3 983a 08a2 e0ba
000000a0: 88f8 80b9 1457 eeba b4a0 2fba 4725 f939
000000b0: 7e1c ce3a 253c 253b 307f c13a a97a bab9
000000c0: d92d 013a aab2 4eb9 b222 923a 382c 6938
000000d0: d381 08ba ca59 2a3b 7324 8eba 4979 b03a
000000e0: efec aa39 2ca3 153a b306 a9ba 7288 873a
000000f0: df11 993a 6b7a 0abb 2c1c ac3a 78bd e3b8
00000100: 5d1b 003a 9f94 ee3a fcbd 1e3a 6602 d739
00000110: f9de 0c3b 89a2 c639 90df 4236 ad1f e43a
00000120: d082 ccb9 88f4 013b 61ed 01bb 7ade a83a
00000130: 8fc2 9e3a 523e 6abb 2e36 7eba 2b40 ecb8
00000140: f4c8 403a 0c66 11bb 826b 90ba b274 35ba
00000150: 6dea 28ba d41c adba 8aa5 023a 49e1 e939
00000160: b99d bb39 077b dcb9 198d 2dba f871 8dba
00000170: 53fb 843a 24a3 33ba 9fbc 8fba b715 11bb
00000180: 979b 8039 a264 193a bcf3 4cba 6093 b8ba
00000190: 041b 22b9 7503 efb7 8b62 433b b8c7 9b39
000001a0: 301c 9b39 c018 0db9 a4fa 01bb 815b 7839
000001b0: 6317 703a 8ada 2e3b c552 81ba 5fd7 9d3a
000001c0: 25be 573a 386b 77b9 53d4 fb39 d18d ba39
000001d0: 6255 813a a90f 04ba 5b9d 0ebb 1098 60ba
000001e0: acff 713a b784 91ba f2a8 8d39 85b7 a8b9
000001f0: a79d 0f3a 65a4 3bba 50c2 bc3a ac3f 253a
00000200: 7fd8 d5b9 e057 a63a f934 5a3a 8364 64ba
00000210: 91df faba be4e f7b9 55cc f8b8 4863 2eba
00000220: 3065 08bb 0622 a23a 5c67 7f3a c0d6 a7ba
00000230: 4825 093a ddd9 09bb 35c7 603a 3b19 293a
00000240: a44c a2ba d1ff b0ba ee84 0f3a 8271 62ba
00000250: 3633 9a39 4479 e53a c379 67ba d09c 6a3a
00000260: c620 2839 ee85 d03a 6316 c2ba 0b22 22ba
00000270: be9f 063a f24d 9aba d346 c439 6c05 983a
00000280: 1e0a e1b9 ced3 c239 e78a 313a 365e 9ab9
00000290: fcc6 95ba 054e e1b9 7328 413a cd00 733a
000002a0: b559 1cba b364 feba 36d9 01bb 4dcf 9bb9
000002b0: 5d80 3239 7444 18bb 3f31 013b eee8 b03a
000002c0: d43d 213b 08cc 9e3a 17f6 883a 6445 d6b9
000002d0: 7be3 11ba 4ca1 4bb9 06b3 c9b8 56d1 38ba
000002e0: 518f d4ba 139a b03a 8419 84b9 687c a2ba
000002f0: 9a3f 66ba ad2a ad38 6e62 963a 43c7 adba
00000300: cb72 a23a ddfc 2dba 924b 79b9 7d14 8eba
00000310: f62c 9aba 0b43 6e3a b413 8ab9 d8d7 2bba
00000320: e362 b43a bfc4 e53a 8164 13b9 1846 303a
00000330: 73da 553a 442d d039 ea62 85b9 8d02 03ba
00000340: cfdc c4ba 21e3 7eba 646a f2b8 e636 103b
00000350: 26cd e2ba efd2 07bb dd3f d6ba b1bd 693a
00000360: 1244 97ba 43e8 ed3a b8c3 08b9 9410 4aba
00000370: d694 b6ba 54b8 be39 0eea 6e39 5dc6 2b3a
00000380: 8f09 da39 1e06 ad3a c3ad 3039 5622 c83a
00000390: 2aef 18ba 525e 8239 6c8f 03ba 84ce e8ba
000003a0: 2bfe e0b9 5fa6 46ba 1433 4439 fb99 12bb
000003b0: 94ee d1ba 5767 aa39 bbe4 dcb7 3475 8c3a
000003c0: 14b6 a0ba 7a96 7f37 7d37 3f3a 381e 95b9
000003d0: bf79 693a 5690 2aba 0de3 24ba 3ce4 8939
000003e0: 3d18 7aba 9057 c839 e1dc 0c3a 81f2 0cba
000003f0: 879c 063b 13c4 2f38 22e3 4eba 5bd1 1b3a

bias f4 [128]
0.01866717 9.619218e-19 -4.982843e-10 -5.083979e-18 -2.3077668e-10 0.003480242 0.0013652095 0.019332737
-6.299245e-08 2.0576462e-22 1.5771583e-29 1.00221875e-25 -2.8048244e-16 0.010497994 0.019770533 -2.3479457e-19
4.4662052e-17 -1.1301529e-14 -1.285265e-11 3.261056e-18 0.004464871 -2.68285e-19 1.8405043e-22 -4.6632827e-15
0.010579852 0.006935083 -2.3138682e-08 -4.527472e-21 0.01366381 2.1501617e-19 0.021203483 2.3733687e-22
1.0681889e-12 0.020178262 0.01569003 -2.6763332e-06 0.021252668 -6.3655e-14 0.018198792 -1.5501026e-12
0.011615697 0.0023090863 0.0013397922 6.5631472e-24 -2.322351e-13 1.5809349e-26 0.010820842 0.02022555
0.02318903 -1.5372632e-06 3.6914605e-19 2.6172571e-27 0.022746393 0.006063924 0.019828213 -6.226773e-06
0.018491449 0.011246505 4.9170838e-17 0.0027260217 0.013823534 3.662103e-20 7.353617e-28 1.13036126e-11
0.008202179 -5.859617e-08 -3.186828e-11 7.772994e-26 0.021144586 0.01336395 0.009261228 -6.846969e-08
0.013654617 2.2592347e-19 6.4965665e-05 0.018259468 -5.9871433e-16 0.014347999 0.017024232 0.022156032
0.019733032 5.4556346e-12 0.019620713 1.1171717e-13 0.010667007 4.864385e-23 0.0010179 0.00010440384
1.8799615e-20 0.0010903447 0.01320392 -2.2307399e-10 0.0064187204 -7.279375e-08 0.017517744 0.010551584
0.0018205569 0.0050524664 -4.007733e-08 0.0031649012 0.022782985 -5.9478274e-14 0.01794632 6.5870634e-16
-6.342489e-11 0.004348951 0.023417037 0.017113676 4.474421e-05 9.188062e-19 -4.5500389e-07 -6.137072e-19
1.2857542e-21 6.957533e-05 0.016004857 0.020614654 0.010450129 0.017346086 -7.716423e-06 0.01970462
1.4007904e-12 -2.6682069e-17 -4.0834184e-06 1.3651986e-20 -4.293401e-25 0.00023827917 -5.8353364e-11 -7.1782885e-08
00000000: e5eb 983c 61f4 8d21 a4f7 08b0 d390 bba2
00000010: dcbd 7daf c614 643b d4f0 b23a b05f 9e3c
00000020: 7746 87b3 11c1 781b 5ff1 9f0f 2923 f815
00000030: e7af a1a5 c7ff 2b3c d0f5 a13c 2799 8aa0
00000040: a5f7 4d24 1a97 4ba8 311b 62ad 9b9f 7022
00000050: 0d4e 923b 155e 9ea0 d980 5e1b 3103 a8a7
00000060: 1e57 2d3c b13f e33b 80c2 c6b2 060b ab9d
00000070: 2cde 5f3c a6d8 7d20 edb2 ad3c 1a76 8f1b
00000080: 9055 962b e24c a53c 6188 803c 0e9b 33b6
00000090: 131a ae3c 9c56 8fa9 a215 953c 5528 daab
000000a0: c44f 3e3c 0a54 173b f79b af3a 43e6 fd18
000000b0: 9bbc 82aa 7691 9c14 e749 313c 0db0 a53c
000000c0: ecf6 bd3c f653 ceb5 c6e7 d920 485c 4f13
000000d0: a556 ba3c e2b3 c63b c76e a23c 93ef d0b6
000000e0: 617b 973c 4343 383c aec2 6224 0ea7 323b
000000f0: 1b7c 623c 1cf0 2c1f a10b 6912 f2da 462d
00000100: 6f62 063c 2cab 7bb3 7e28 0cae 3473 c015
00000110: 6937 ad3c 78f4 5a3c 68bc 173c 9c09 93b3
00000120: 9db7 5f3c 975c 8520 2d3e 8838 e194 953c
00000130: 5291 2ca6 df13 6b3c 6776 8b3c 9180 b53c
00000140: 2ba7 a13c fdf3 bf2c 9ebb a03c 9090 fb29
00000150: acc4 2e3c 2b3a 6b1a 0e6b 853a 63f3 da38
00000160: ae8e b11e e6e9 8e3a 4155 583c bf45 75af
00000170: 2154 d23b ca52 9cb3 5f81 8f3c 8de0 2c3c
00000180: c19f ee3a 298f a53b 7e21 2cb3 3b6a 4f3b
00000190: 62a3 ba3c e4ee 85a9 2904 933c f3db 3d26
000001a0: 0a79 8bae a581 8e3b 16d5 bf3c fb31 8c3c
000001b0: bbab 3b38 8497 8721 4247 f4b4 6822 35a1
000001c0: 354c c21c f9e8 9138 9e1c 833c 10e0 a83c
000001d0: 0537 2b3c 6119 8e3c c975 01b7 956b a13c
000001e0: cb24 c52b 4119 f6a3 4c04 89b6 7af0 801e
000001f0: d4df 0497 94da 7939 0652 80ae 0f27 9ab3
